…
n1-modules-0.3.0 requests-oauthlib-1.3.1 rsa-4.9 tensorboard-2.11.2 tensorboard-data-server-0.6.1 tensorboard-plugin-wit-1.8.1 tensorflow-2.11.0 tensorflow-estimator-2.11.0 tensorflow-intel-2.11.0 tensorflow-io-gcs-filesystem-0.31.0 werkzeug-2.2.3 wrapt-1.15.0

To enable them in other operations, rebuild TensorFlow with the appropriate compiler flags.
Mode 1l: "sequential"
_________________________________________________________________
 Layer (type)                Output Shape              Param #
=================================================================
 conv2d (Conv2D)             (None, 28, 28, 32)        896

 max_pooling2d (MaxPooling2D  (None, 14, 14, 32)       0
 )

 conv2d_1 (Conv2D)           (None, 12, 12, 64)        18496     

 max_pooling2d_1 (MaxPooling  (None, 6, 6, 64)         0
 2D)

 flatten (Flatten)           (None, 2304)              0

 dense (Dense)               (None, 128)               295040

 dropout (Dropout)           (None, 128)               0

 dense_1 (Dense)             (None, 43)                5547

=================================================================
Total params: 319,979
Trainable params: 319,979
Non-trainable params: 0
333/333 - 5s - loss: 0.1021 - accuracy: 0.9731 - 5s/epoch - 15ms/step

Model 2: "sequential"
_________________________________________________________________
 Layer (type)                Output Shape              Param #
=================================================================
 conv2d (Conv2D)             (None, 28, 28, 32)        896

 conv2d_1 (Conv2D)           (None, 26, 26, 64)        18496

 max_pooling2d (MaxPooling2D  (None, 13, 13, 64)       0
 )

 conv2d_2 (Conv2D)           (None, 11, 11, 128)       73856     

 max_pooling2d_1 (MaxPooling  (None, 5, 5, 128)        0
 2D)

 flatten (Flatten)           (None, 3200)              0

 dense (Dense)               (None, 256)               819456

 dropout (Dropout)           (None, 256)               0

 dense_1 (Dense)             (None, 128)               32896

 dropout_1 (Dropout)         (None, 128)               0

 dense_2 (Dense)             (None, 43)                5547

=================================================================
Total params: 951,147
Trainable params: 951,147
Non-trainable params: 0